solutions/digital-recognizer/models/cnn.ckpt (torch_old, 117985 bytes, 14 tensors)

layer1.0.weight f4 [16, 1, 3, 3]
0.29759285 0.18641096 0.297989 -0.029606095 0.118484646 -0.19622284 0.23625138 0.14708291
0.15350285 0.28552818 -0.24718527 0.02678463 -0.23022571 -0.2253943 0.35507116 -0.09499029
0.24987707 -0.11731296 -0.18934754 0.26589337 -0.09706064 -0.25185928 0.020547193 -0.018220529
0.13896018 0.100611724 -0.16202524 -0.2187537 -0.021278678 -0.020325616 -0.0063486546 0.29586458
0.037963226 0.18157266 -0.16611856 -0.11335761 -0.15344284 -0.22997952 0.13227066 0.18824954
-0.3193417 0.09819537 -0.034622397 -0.09573905 0.014230464 -0.03697508 -0.19159514 -0.28238305
-0.17623107 -0.044693213 0.20307885 0.04299959 -0.026682246 0.15235433 0.012749796 0.094306916
-0.27293256 -0.16257901 0.3518017 -0.07151703 -0.24811834 -0.00082255906 0.10749126 -0.011607652
-0.2573843 0.2851161 0.029401213 0.15532534 0.28419456 0.044529207 0.32391283 -0.109586515
-0.010030819 0.18615009 -0.03177493 -0.2308461 -0.30183867 -0.14015068 0.087010935 0.25407472
-0.06456209 0.027553339 -0.15394333 0.084530696 -0.25707838 -0.04040331 0.036106747 -0.21253015
0.031879377 0.17145678 0.3568774 -0.28011748 0.32767397 -0.29631543 0.24334839 -0.18848465
-0.2838186 -0.12989765 0.06992459 0.037305776 0.07749199 -0.065596394 0.21663831 -0.099869095
-0.40043435 0.25287825 0.07129634 -0.12041138 -0.17735958 0.14880972 0.20644847 -0.035857134
-0.08098686 -0.096813835 -0.11000199 -0.09434527 -0.12336529 -0.2065601 0.31231707 -0.012758745
0.16069317 -0.07738936 0.2630864 -0.19226393 -0.05806205 0.35002318 0.014242791 -0.12479559
-0.25536278 0.25403768 0.20911582 -0.06110198 -0.15942429 -0.06337462 0.20451267 0.06467796
0.025071796 -0.1730866 0.17143565 -0.1884454 0.0067250896 -0.16926146 -0.20180976 0.15902357
00000000: 175e 983e 84e2 3e3e 0492 983e 7b88 f2bc
00000010: 14a8 f23d a4ee 48be e2eb 713e e79c 163e
00000020: da2f 1d3e c030 923e 231e 7dbe 716b db3c
00000030: 4ac0 6bbe c3cd 66be e3cb b53e 458a c2bd
00000040: c6df 7f3e c741 f0bd 52e4 41be 2d23 883e
00000050: bbc7 c6bd b3f3 80be 9652 a83c 3843 95bc
00000060: 944b 0e3e 850d ce3d f2e9 25be f800 60be
00000070: 9f50 aebc e881 a6bc 6008 d0bb 907b 973e
00000080: 547f 1b3d 2fee 393e fc1a 2abe 0928 e8bd
00000090: 1f20 1dbe c07f 6bbe f671 073e 7dc4 403e
000000a0: c180 a3be a71a c93d 37d0 0dbd d612 c4bd
000000b0: e426 693c 2e73 17bd 8431 44be 8394 90be
000000c0: eb75 34be 3b10 37bd e7f3 4f3e 5720 303d
000000d0: ba94 dabc c602 1c3e 85e4 503c fc23 c13d
000000e0: d1bd 8bbe 1d7b 26be 5a1f b43e 8577 92bd
000000f0: bc12 7ebe 01a1 57ba 6124 dc3d 052e 3ebc
00000100: e0c7 83be bdfa 913e d0da f03c 9b0d 1f3e
00000110: f381 913e 4264 363d e7d7 a53e e56e e0bd
00000120: 4e58 24bc 219e 3e3e 6e26 02bd ec62 6cbe
00000130: 998a 9abe a983 0fbe ca32 b23d 1516 823e
00000140: 2139 84bd 8ab7 e13c 52a3 1dbe 6e1e ad3d
00000150: c79f 83be f17d 25bd abe4 133d 81a1 59be
00000160: f393 023d 5e92 2f3e a2b8 b63e 8f6b 8fbe
00000170: e2c4 a73e a8b6 97be 5230 793e 1f02 41be
00000180: ac50 91be e403 05be a034 8f3d f1cd 183d
00000190: 1fb4 9e3d 6757 86bd 6fd6 5d3e 2b88 ccbd
000001a0: bb05 cdbe 4279 813e d103 923d 3e9a f6bd
000001b0: c09d 35be 9361 183e 3a67 533e eede 12bd
000001c0: 70dc a5bd 5546 c6bd b948 e1bd 1838 c1bd
000001d0: f1a6 fcbd 7e84 53be 06e8 9f3e 0e0a 51bc
000001e0: c08c 243e 507e 9ebd 43b3 863e d6e0 44be
000001f0: 79d2 6dbd 3d36 b33e 985a 693c d594 ffbd
00000200: e9be 82be 3a11 823e 7522 563e 1246 7abd
00000210: 1f40 23be 8eca 81bd c56b 513e e175 843d
00000220: 5e63 cd3c 9d3d 31be d48c 2f3e d5f7 40be
00000230: 245e dc3b e052 2dbe 38a7 4ebe 13d7 223e

layer1.0.bias f4 [16]
-0.25716427 -0.09496383 0.28205764 0.07991815 -0.26633725 -0.18162282 0.31153625 -0.024411563
-0.10507471 0.3100561 0.1572579 -0.051745955 -0.0518411 0.08122088 -0.2962477 0.056288715
00000000: 09ab 83be 667c c2bd dc69 903e 21ac a33d
00000010: 5b5d 88be 55fb 39be ae81 9f3e c2fa c7bc
00000020: 6931 d7bd acbf 9e3e 3708 213e 91f3 53bd
00000030: 5557 54bd 2257 a63d c7ad 97be ff8e 663d

layer1.1.weight f4 [16]
0.6000293 0.88886267 1.0269831 0.8394954 1.2241805 1.2043811 1.0646894 0.5866349
1.17203 1.049537 0.976466 0.89513695 1.2633774 0.6230318 1.008201 1.4261656
00000000: 859b 193f 818c 633f 2f74 833f 2ce9 563f
00000010: f2b1 9c3f 2929 9a3f be47 883f b42d 163f
00000020: 1405 963f 3a57 863f adf9 793f b227 653f
00000030: 5ab6 a13f 037f 1f3f bb0c 813f 988c b63f

layer1.1.bias f4 [16]
-0.4010953 -0.18273862 -0.11673729 -0.1665427 -0.053666245 -0.18214321 0.014665039 -0.32705522
-0.1626467 -0.123401605 -0.26014724 -0.2673816 -0.17174853 -0.440205 -0.29166454 -0.14063154
00000000: 5d5c cdbe d51f 3bbe f613 efbd 2b8a 2abe
00000010: 23d1 5bbd c083 3abe a245 703c c873 a7be
00000020: db8c 26be fbb9 fcbd 0532 85be 3ee6 88be
00000030: d9de 2fbe 8d62 e1be 0e55 95be b701 10be

layer1.1.running_mean f4 [16]
40.48469 -0.019090671 -6.189216 -0.9394645 -13.702878 -12.299017 -6.0785027 24.99408
-8.581681 -10.193098 -5.9301586 -1.0843872 -12.285445 18.197481 0.32145342 -10.220395
00000000: 53f0 2142 0a64 9cbc 0f0e c6c0 bf80 70bf
00000010: fd3e 5bc1 c6c8 44c1 1883 c2c0 e0f3 c741
00000020: 914e 09c1 ee16 23c1 dcc3 bdc0 33cd 8abf
00000030: 2f91 44c1 7194 9141 8b95 a43e bd86 23c1

layer1.1.running_var f4 [16]
6072.744 469.76434 324.99063 275.86505 1057.6251 1370.8021 386.7176 3192.492
594.24335 1239.5309 1007.38654 1475.7402 914.5395 2026.7847 407.77228 798.1628
00000000: f4c5 bd45 d6e1 ea43 cd7e a243 baee 8943
00000010: 0134 8444 ab59 ab44 da5b c143 df87 4745
00000020: 938f 1444 fdf0 9a44 bdd8 7b44 b077 b844
00000030: 87a2 6444 1c59 fd44 dae2 cb43 6b8a 4744

layer2.0.weight f4 [32, 16, 5, 5]
0.06993721 -0.009349364 0.045998603 0.04161608 0.08264475 -0.021436136 0.014031325 0.034072522
0.02749515 -0.042607356 -0.0022351516 0.010703701 0.04604208 -0.060934678 0.06974816 0.048172116
0.049228128 -0.059412383 0.009052492 0.03618194 -0.018134454 -0.07501958 -0.03135844 0.04179325
0.036190007 0.055423774 -0.044155996 0.048059385 -0.01703724 -0.025476947 0.061104804 -0.017508151
-0.046144586 -0.041875206 0.037637 -0.0015979193 0.037978884 -0.0072938856 0.06854245 0.08191831
-0.102631845 0.067648284 0.0062536695 -0.019588163 0.0019220631 -0.03940262 -0.051751304 -0.07049872
-0.09538697 -0.02437248 0.06047232 0.016789738 0.041475095 -0.03529927 0.014142505 0.05251484
-0.002911328 -0.05139285 -0.05875111 -0.062960446 -0.0019676548 0.03409527 -0.12477027 -0.11337169
-0.063888445 -0.10470653 -0.07684751 0.01122912 -0.0013548569 -0.086035706 0.023179783 0.011425413
0.04108816 0.02339515 0.028675817 -0.10455427 0.0030051817 0.010061468 0.021162799 0.018826298
0.03527914 -0.024141923 -0.06117038 0.02883456 -0.015100744 0.004310558 0.00039644408 -0.07838826
-0.028845761 0.024885572 0.010490941 -0.050758533 -0.071734406 0.012905083 -0.013537697 -0.056123335
0.022023015 -0.12273908 -0.0040468955 0.013932355 -0.022426387 -0.05475516 -0.0011632774 -0.066688165
-0.1270124 -0.08692506 -0.067786604 -0.023485329 -0.11825912 0.014697466 -0.049751353 0.11459302
0.02244841 0.051994924 -0.14548706 -0.037327584 -0.03167134 -0.039018475 0.009671713 -0.10281579
-0.0334702 -0.106512964 -0.04655635 -0.04627999 -0.054465115 -0.043066777 0.112741075 0.0070482753
0.0070068785 -0.20349081 0.08206254 0.0040403646 -0.00015929445 0.087035656 0.046281558 0.0981573
0.10764157 0.072902165 0.18784267 0.21476021 0.06278678 -0.014861253 -0.0740602 -0.1475536
0.05329137 0.027290666 -0.038490936 -0.008071977 0.07223503 0.040766116 0.00059054495 0.001926968
-0.024914553 0.040485047 -0.11527557 0.05999136 0.12724566 0.07659725 0.022436464 -0.0053782123
0.01710619 -0.03707747 0.025064249 0.0074019004 0.062016483 -0.067986146 -0.015559801 -0.05790153
0.09629212 0.04409084 0.102963075 -0.018796131 0.02000329 -0.07659764 -0.031005235 -0.07402222
-0.049950503 0.007360828 0.041161604 0.060524948 0.046336956 -0.026330296 0.07171932 -0.03544691
-0.009207187 0.010618067 -0.025239544 0.0071538854 0.0065322723 0.011492 0.048478123 -0.052668
-0.009144143 0.023711639 0.008738649 -0.047186244 0.036192197 -0.045900315 0.0744223 -0.05886421
-0.0043696174 0.068467245 0.00572892 -0.0011267527 0.15319046 0.21626471 0.018649526 -0.15149854
-0.06093176 0.12913078 0.1804326 0.024421297 -0.02989135 0.06535199 -0.04831947 0.070245266
0.0014408237 -0.18455045 0.049350906 0.035561513 0.16999918 -0.010672885 0.046615314 -0.03317145
0.020939123 -0.01141879 -0.039218433 -0.017823508 -0.013511676 -0.011831463 0.0803129 0.025011893
-0.07772471 0.017149042 0.044051617 0.019078821 0.01787933 0.061036706 0.096682206 0.04771889
-0.040111482 0.026743392 0.08993354 -0.024982406 -0.054427158 -0.058184803 0.023474868 0.02260607
0.035683777 -0.04085655 0.10583452 0.083487615 0.10031719 0.02800666 0.016391547 -0.067119315
00000000: 3d3b 8f3d 132e 19bc 0869 3c3d 9f75 2a3d
00000010: a741 a93d d69a afbc a4e3 653c a18f 0b3d
00000020: 823d e13c 0d85 2ebd 9f7b 12bb 935e 2f3c
00000030: 9f96 3c3d a496 79bd 20d8 8e3d 2050 453d
00000040: 6fa3 493d 665a 73bd e750 143c 8433 143d
00000050: b58e 94bc dea3 99bd b571 00bd 662f 2b3d
00000060: f93b 143d 0a04 633d ebdc 34bd ebd9 443d
00000070: af91 8bbc 08b5 d0bc 0849 7a3d 416d 8fbc
00000080: 1b02 3dbd 5685 2bbd 4129 1a3d 4671 d1ba
00000090: bf8f 1b3d 8c01 efbb fc5f 8c3d c9c4 a73d
000000a0: a530 d2bd 2f8b 8a3d 95eb cc3b 5b77 a0bc
000000b0: bced fb3a a464 21bd 2df9 53bd a261 90bd
000000c0: 3e5a c3bd cca8 c7bc d3b1 773d a28a 893c
000000d0: cae1 293d f895 10bd f7b5 673c cd19 573d
000000e0: fbcb 3ebb 4f81 52bd 01a5 70bd 68f1 80bd
000000f0: c5f3 00bb 7ba7 0b3d 8e87 ffbd 6b2f e8bd
00000100: f2d7 82bd 6170 d6bd 3a62 9dbd 58fa 373c
00000110: 7495 b1ba 7d33 b0bd 87e3 bd3c a831 3b3c
00000120: 0f4c 283d 30a7 bf3c 8ce9 ea3c 8d20 d6bd
00000130: 95f2 443b dbd8 243c 9b5d ad3c 9c39 9a3c
00000140: dc80 103d 48c5 c5bc cb8d 7abd 7536 ec3c
00000150: 1c69 77bc 953f 8d3b d3d9 cf39 068a a0bd
00000160: f24d ecbc d4dc cb3c 32e2 2b3c 2ee8 4fbd
00000170: 7de9 92bd d76f 533c 37cd 5dbc 95e1 65bd
00000180: 9c69 b43c a05e fbbd d29b 84bb 8844 643c
00000190: 8bb7 b7bc f246 60bd 1d79 98ba ce93 88bd
000001a0: 8a0f 02be c405 b2bd b4d3 8abd 4e64 c0bc
000001b0: d631 f2bd a4cd 703c 13c8 4bbd bfaf ea3d
000001c0: bae5 b73c a1f8 543d 8ffa 14be cfe4 18bd
000001d0: cfb9 01bd d6d1 1fbd 1b76 1e3c 1691 d2bd
000001e0: 0c18 09bd 7823 dabd dfb1 3ebd 1690 3dbd
000001f0: d016 5fbd ca66 30bd cbe4 e63d 38f5 e63b
00000200: f599 e53b e55f 50be 6810 a83d 0965 843b
00000210: 4708 27b9 c03f b23d bb91 3d3d b206 c93d
00000220: 2f73 dc3d bb4d 953d d459 403e 1aea 5b3e
00000230: 5b96 803d 9d7c 73bc e0ac 97bd 4a18 17be
00000240: 0d48 5a3d ad90 df3c aca8 1dbd 5340 04bc
00000250: f6ef 933d 5ffa 263d cdce 1a3a 5192 fc3a
00000260: 9b19 ccbc a6d3 253d 9915 ecbd 80b9 753d
00000270: b04c 023e 05df 9c3d adcc b73c b73b b0bb
00000280: 4822 8c3c 8cde 17bd 8a53 cd3c a48b f23b
00000290: ff04 7e3d 523c 8bbd 89ee 7ebc 282a 6dbd
000002a0: ce34 c53d 9998 343d 4ede d23d 58fa 99bc
000002b0: f1dd a33c 39df 9cbd b1fe fdbc f698 97bd
000002c0: e698 4cbd 1a33 f13b 1299 283d 02e9 773d
000002d0: d2cb 3d3d a2b2 d7bc 94e1 923d c730 11bd
000002e0: bed9 16bc 67f7 2d3c 29c3 cebc 246b ea3b
000002f0: ac0c d63b f148 3c3c ff90 463d 67ba 57bd
00000300: 51d1 15bc e93e c23c 8d2c 0f3c 5d46 41bd
00000310: 453e 143d f801 3cbd b86a 983d 991b 71bd
00000320: 022f 8fbb 8e38 8c3d aab9 bb3b 8caf 93ba
00000330: f6dd 1c3e 7f74 5d3e e4c6 983c 6f22 1bbe
00000340: 9593 79bd dc3a 043e 53c3 383e 2c0f c83c
00000350: b4de f4bc 44d7 853d a3ea 45bd c0dc 8f3d
00000360: 05da bc3a cbfa 3cbe 2d24 4a3d f3a8 113d
00000370: 4414 2e3e 53dd 2ebc b3ef 3e3d c9de 07bd
00000380: 8688 ab3c e015 3bbc 82a3 20bd 9b02 92bc
00000390: 1460 5dbc c1d8 41bc 177b a43d bee5 cc3c
000003a0: 222e 9fbd 267c 8c3c 786f 343d 304b 9c3c
000003b0: ac77 923c a001 7a3d 5201 c63d e274 433d
000003c0: f04b 24bd f514 db3c 132f b83d e7a7 ccbc
000003d0: 03ef 5ebd 3053 6ebd 5e4e c03c 5d30 b93c
000003e0: 2729 123d 3359 27bd c5bf d83d 8efb aa3d
000003f0: 1973 cd3d 396e e53c 9147 863c da75 89bd

layer2.0.bias f4 [32]
0.02136826 -0.04051687 0.035673976 -0.042507023 -0.0035460223 0.045366675 -0.023892816 0.037063148
-0.024587227 0.03355546 0.03826785 0.016631613 0.050766956 -0.005060507 0.029387498 -0.013094692
-0.014188271 -0.013336996 0.0079188915 -0.029923031 0.020601587 0.015505734 0.040080916 -0.007918422
-0.0045331093 0.034716766 0.03180748 -0.024253804 -0.0030662052 0.0055644694 -0.023716439 0.007940522
00000000: 7d0c af3c 04f5 25bd e01e 123d d81b 2ebd
00000010: 6264 68bb 68d2 393d deba c3bc 87cf 173d
00000020: 276b c9bc 7371 093d c0be 1c3d 053f 883c
00000030: 03f1 4f3d 9cd2 a5bb 0dbe f03c 1e8b 56bc
00000040: ec75 68bc 6a83 5abc 3dbe 013c 2521 f5bc
00000050: a9c4 a83c c30b 7e3c e32b 243d 45bc 01bc
00000060: 7a8a 94bb 2b33 0e3d 8f48 023d eaaf c6bc
00000070: 63f2 48bb 2756 b63b fa48 c2bc f718 023c

layer2.1.weight f4 [32]
1.4977436 1.5051248 1.386459 1.4325054 1.4828173 1.5981756 1.541212 1.4464693
1.4678009 1.3719468 1.4506006 1.4263175 1.4067391 1.3966855 1.4754306 1.5466012
1.3651768 1.3784167 1.4988483 1.4045076 1.3260852 1.4755328 1.3235619 1.5033013
1.6236186 1.4528136 1.5743266 1.3424671 1.3773932 1.3033031 1.4763001 1.4968481
00000000: 10b6 bf3f eea7 c03f 7d77 b13f 565c b73f
00000010: f5cc bd3f 0591 cc3f 6f46 c53f e825 b93f
00000020: e6e0 bb3f f49b af3f 48ad b93f 9291 b63f
00000030: 0710 b43f 97c6 b23f e9da bc3f 07f7 c53f
00000040: 1dbe ae3f f56f b03f 43da bf3f e8c6 b33f
00000050: 29bd a93f 42de bc3f 7a6a a93f 2d6c c03f
00000060: bcd2 cf3f ccf5 b93f 8983 c93f f6d5 ab3f
00000070: 6c4e b03f a3d2 a63f 67f7 bc3f b898 bf3f

layer2.1.bias f4 [32]
-0.08268102 -0.22903837 -0.042822443 -0.06469744 -0.16699141 -0.14657208 -0.122882284 0.05409625
-0.19370836 -0.067938395 -0.09712234 -0.009367017 -0.036084376 -0.12107556 -0.049118076 -0.10939313
-0.04288749 -0.07872613 -0.027568018 -0.069220856 -0.01143691 -0.04333721 -0.025525464 -0.094758645
-0.15449022 -0.16314681 -0.13099827 -0.09389889 0.012923746 -0.09377173 -0.11996978 -0.16152982
00000000: ab54 a9bd 0989 6abe 9666 2fbd 1780 84bd
00000010: ccff 2abe fe16 16be b5a9 fbbd 0894 5d3d
00000020: 7c5b 46be 4923 8bbd 14e8 c6bd 1e78 19bc
00000030: 36cd 13bd 77f6 f7bd 0930 49bd 8109 e0bd
00000040: cbaa 2fbd 2a3b a1bd 53d6 e1bc aac3 8dbd
00000050: e161 3bbc 5c82 31bd c71a d1bc d210 c2bd
00000060: af32 1ebe f50f 27be 6924 06be 104e c0bd
00000070: 1fbe 533c 650b c0bd b7b2 f5bd 1368 25be

layer2.1.running_mean f4 [32]
0.44922498 0.58903944 -0.40007824 0.5997097 -0.0245088 0.42348003 0.11967492 0.8323752
-0.2397432 -0.49152398 -0.19902661 0.30617544 -0.13616373 0.50214326 0.14078966 0.116426766
-0.06770838 -0.118977726 0.14745466 0.27522793 0.60913724 0.44686818 0.3588467 -0.19543673
0.010896731 0.076380804 -0.0034145343 -0.91444564 -0.44473615 -0.5493788 -0.36686426 -0.12682723
00000000: d100 e63e 4acb 163f 0ed7 ccbe 9386 193f
00000010: aec6 c8bc 60d2 d83e 2018 f53d 8b16 553f
00000020: 3e7f 75be 08a9 fbbe a2cd 4bbe 07c3 9c3e
00000030: 816e 0bbe 768c 003f 2a2b 103e 2871 ee3d
00000040: b1aa 8abd 98aa f3bd 5bfe 163e adea 8c3e
00000050: 6bf0 1b3f e8cb e43e c1ba b73e 9120 48be
00000060: 3488 323c 8a6d 9c3d 61c6 5fbb 1c19 6abf
00000070: 75b4 e3be 17a4 0cbf a2d5 bbbe ffde 01be

layer2.1.running_var f4 [32]
0.6813189 0.67960066 0.98649657 0.8297061 0.72135615 0.8226707 0.80401075 0.9526943
0.77355176 0.7207905 0.8233604 0.9850059 1.1422617 0.7129966 0.6854669 0.66381395
0.7433882 0.6767184 0.9361332 0.7592209 0.8738482 1.2318321 0.7479542 1.4075657
0.73175967 0.63850605 0.92938125 0.6355253 0.7287199 0.58853894 0.7027739 0.8137391
00000000: ea6a 2e3f 4ffa 2d3f 0a8b 7c3f 9e67 543f
00000010: ccaa 383f 8c9a 523f a6d3 4d3f c6e3 733f
00000020: 7d07 463f ba85 383f bfc7 523f 5929 7c3f
00000030: a235 923f f286 363f c27a 2f3f b6ef 293f
00000040: b04e 3e3f 6b3d 2d3f 6da6 6f3f 4d5c 423f
00000050: 84b4 5f3f adac 9d3f ed79 3f3f 1d2b b43f
00000060: 9a54 3b3f 2275 233f eeeb 6d3f c9b1 223f
00000070: 638d 3a3f 7daa 163f fee8 333f 3551 503f

fc.weight f4 [10, 1568]
-0.003021966 -0.0192277 0.010950558 0.0033141668 0.08456529 -0.03592283 0.012645536 -0.053501897
-0.027064255 0.015773 0.0079372255 0.052011084 -0.26150206 -0.1847137 0.069669574 -0.010389217
0.030887285 -0.064954504 0.057005946 -0.06482635 -0.064109825 0.059692346 -0.0014804658 -0.087403245
0.04505358 0.09071284 0.021960992 0.024995368 -0.0425773 -0.13761592 0.049144417 -0.068827264
0.06265259 0.12484712 0.07430453 -0.13145341 -0.030848952 -0.12144449 -0.06740129 0.04343274
0.017358618 0.06980324 0.039475113 0.01255829 0.009594119 0.035090473 -0.012339011 0.016324375
-0.073591635 -0.060922995 0.005353897 -0.04451656 0.08406287 -0.039499793 -0.006358103 -0.053145066
0.009319311 0.045641538 -0.02414931 0.062067058 -0.042334642 0.035741754 0.026791245 0.040899973
0.028522016 -0.10025643 0.11380851 0.16125308 0.0264741 0.039924737 0.061035074 0.035418093
-0.01139385 0.058118563 0.048559558 0.016578697 -0.040325608 0.0061359243 -0.03221454 -0.0430164
0.029194327 0.023210611 0.026299793 0.011420124 -0.11912266 -0.16256617 0.068117775 0.042993914
-0.047382917 0.014861426 0.07738296 0.02853057 0.021080218 0.054201335 -0.0091640195 -0.0006130076
0.0009670462 0.066575296 0.033703454 -0.11772267 -0.032039393 -0.08478829 0.0731332 -0.0027331575
-0.08391683 -0.027719038 -0.09346739 -0.030250533 -0.04508612 -0.028602105 -0.10076059 -0.066226885
-0.0037184579 0.027595833 0.05950691 0.034209196 -0.14999813 -0.30038387 0.014808652 -0.005155016
0.042502094 -0.010286925 -0.19580196 -0.05054554 0.0012508567 0.08316985 0.013799208 0.02311746
-0.0947196 0.052510303 0.0323115 0.06352926 0.117424466 0.023181845 -0.03348153 0.0138425445
-0.00879759 0.08426564 -0.009753281 -0.05962678 -0.10491439 -0.14700992 0.014422511 -0.13036628
-0.2535322 -0.19318163 -0.18269813 -0.015480544 0.07203071 0.11070469 -0.007157566 -0.043544963
-0.03597613 -0.018543528 -0.069792785 -0.072709285 -0.12133967 0.014629866 0.035519645 -0.076797
-0.05668846 0.041874062 -0.08658571 -0.09250357 -0.015199866 -0.108664624 -0.14447747 -0.21911716
-0.049467664 -0.009131892 -0.14152002 -0.020747565 -0.04204317 -0.22870484 -0.2039424 0.014320101
-0.037001997 -0.011380899 0.05808946 -0.111049116 0.042735312 0.057011396 -0.036172993 0.0116393715
-0.022034915 -0.049911525 0.040732983 0.08290486 0.048080143 0.018694513 -0.08356528 0.0026233096
-0.041245557 0.039426796 0.008032618 -0.024054043 0.07250277 -0.08178369 0.053507242 0.016886361
0.025552727 0.039857913 -0.011940429 -0.02561333 -0.117000744 -0.03641673 -0.0027218312 0.063502096
-0.026803695 -0.056344904 -0.0078529045 -0.047254596 -0.010908942 -0.112271205 -0.2372776 -0.06549182
0.013836002 -0.11269087 -0.12161195 -0.07785229 -0.111017324 0.10104329 0.052790377 -0.100622185
-0.09647584 -0.018648103 0.14476973 0.0033244481 0.037745595 0.04626893 0.10871654 0.042625215
0.046881385 0.060842644 -0.105216175 0.03950146 -0.010284754 -0.020964054 0.057241816 -0.048705477
-0.008986671 -0.0722825 -0.076917194 0.023806613 -0.00095026166 -0.104834646 -0.05616315 -0.07016682
-0.055647973 -0.01758273 -0.12548967 -0.007211826 0.0028747437 0.024560254 0.0016960413 -0.0869914
00000000: 2d0c 46bb 6983 9dbc f869 333c 7e32 593b
00000010: 9130 ad3d d123 13bd 392f 4f3c ce24 5bbd
00000020: dbb5 ddbc 6136 813c 230b 023c 9309 553d
00000030: 99e3 85be 9725 3dbe ecae 8e3d 8937 2abc
00000040: 5507 fd3c de06 85bd 117f 693d adc3 84bd
00000050: 034c 83bd f67f 743d 300c c2ba 7900 b3bd
00000060: 1a8a 383d a7c7 b93d 8ae7 b33c 16c3 cc3c
00000070: 8965 2ebd 30eb 0cbe a84b 493d 4ff5 8cbd
00000080: 0050 803d d9af ff3d f92c 983d b99b 06be
00000090: f1b6 fcbc e4b7 f8bd b009 8abd 87e6 313d
000000a0: a933 8e3c 00f5 8e3d a8b0 213d 49c1 4d3c
000000b0: a730 1d3c 07bb 0f3d 9029 4abc b2ba 853c
000000c0: 36b7 96bd 648a 79bd be6f af3b ff56 36bd
000000d0: 2729 ac3d 89ca 21bd a257 d0bb a4ae 59bd
000000e0: 06b0 183c 9ff2 3a3d c6d4 c5bc 073a 7e3d
000000f0: 1767 2dbd f265 123d 5079 db3c bb86 273d
00000100: 01a7 e93c 3e53 cdbd 7014 e93d 871f 253e
00000110: 36e0 d83c 1f88 233d eaff 793d 9012 113d
00000120: 45ad 3abc bb0d 6e3d 63e6 463d 0cd0 873c
00000130: 772c 25bd dd0f c93b 65f3 03bd f731 30bd
00000140: f128 ef3c 2e24 be3c aa72 d73c 791b 3b3c
00000150: 95f6 f3bd bf77 26be 5581 8b3d 631a 303d
00000160: 9714 42bd 577d 733c f57a 9e3d f1b8 e93c
00000170: 6cb0 ac3c 3802 5e3d af24 16bc 3eb2 20ba
00000180: 5f81 7d3a a158 883d a20c 0a3d 9518 f1bd
00000190: bd3b 03bd 7ca5 adbd dcc6 953d c61e 33bb
000001a0: 96dc abbd 0913 e3bc d56b bfbd f7cf f7bc
000001b0: 39ac 38bd f64e eabc 915b cebd f6a1 87bd
000001c0: 5fb1 73bb a810 e23c 85bd 733d f11e 0c3d
000001d0: 1c99 19be eacb 99be fd9f 723c 69eb a8bb
000001e0: ad16 2e3d 7e8a 28bc 4f80 48be d708 4fbd
000001f0: c9f3 a33a f454 aa3d 1316 623c d460 bd3c
00000200: 5afc c1bd 0b15 573d 1059 043d a11b 823d
00000210: 3d7c f03d dae7 bd3c ee23 09bd d7cb 623c
00000220: c423 10bc 7793 ac3d 3acc 1fbc 363b 74bd
00000230: 5bdd d6bd c589 16be 654c 6c3c bd7e 05be
00000240: f9ce 81be 68d1 45be 3815 3bbe 1ca2 7dbc
00000250: d684 933d 24b9 e23d 048a eabb 345c 32bd
00000260: b55b 13bd 99e8 97bc 85ef 8ebd 9be8 94bd
00000270: ef80 f8bd 1bb2 6f3c 0c7d 113d bf47 9dbd
00000280: 2932 68bd 2384 2b3d d953 b1bd 8372 bdbd
00000290: dc08 79bc 8f8b debd e7f1 13be 4060 60be
000002a0: 9b9e 4abd ee9d 15bc a0ea 10be ccf6 a9bc
000002b0: 7635 2cbd 9a31 6abe 47d6 50be db9e 6a3c
000002c0: 688f 17bd f376 3abc 37ef 6d3d b86d e3bd
000002d0: 390b 2f3d c884 693d 222a 14bd 10b3 3e3c
000002e0: 9182 b4bc 0770 4cbd a1d7 263d 06ca a93d
000002f0: afef 443d 3c25 993c 4624 abbd d5eb 2b3b
00000300: 1af1 28bd fe7d 213d 3e9b 033c fc0c c5bc
00000310: 557c 943d 357e a7bd 692a 5b3d 4455 8a3c
00000320: f453 d13c 0d42 233d caa1 43bc 0cd3 d1bc
00000330: 169e efbd b629 15bd c060 32bb 630d 823d
00000340: 6c93 dbbc eac9 66bd 78a9 00bc 098e 41bd
00000350: 6bbb 32bc 72ee e5bd e6f8 72be 9320 86bd
00000360: 66b0 623c 79ca e6bd b00f f9bd 0571 9fbd
00000370: 0d5d e3bd c9ef ce3d b93a 583d 0113 cebd
00000380: 2095 c5bd e8c3 98bc 843e 143e fcde 593b
00000390: 209b 1a3d 7d84 3d3d c7a6 de3d c797 2e3d
000003a0: b206 403d 2336 793d 947b d7bd 48cc 213d
000003b0: 6381 28bc cfbc abbc 6576 6a3d 657f 47bd
000003c0: d53c 13bc d908 94bd c386 9dbd 1606 c33c
000003d0: fb1a 79ba 8cb3 d6bd 550b 66bd 9fb3 8fbd
000003e0: 21ef 63bd a809 90bc 5d80 00be 2e51 ecbb
000003f0: 3266 3c3b 9632 c93c b44d de3a 8c28 b2bd

fc.bias f4 [10]
0.032825597 0.06454405 0.02882335 -0.036988314 -0.030508365 0.029526016 0.015766153 0.016951429
-0.020559613 -0.00848203
00000000: 2274 063d ac2f 843d f21e ec3c 0f81 17bd
00000010: aeec f9bc 8be0 f13c 0528 813c b9dd 8a3c
00000020: a26c a8bc 36f8 0abc
