solutions/digital-recognizer/models/cnn.ckpt (torch_old, 119010 bytes, 14 tensors)

layer1.0.weight f4 [16, 1, 5, 5]
00000000: df8f 4fbd 24e7 c5bd e4d0 e83d 91da ec3d
00000010: cb90 a7bc ee9b d83d b250 9ebe 49ee 193d
00000020: b04a 6d3e 2833 393e 3bf7 debc 35c9 54bd
00000030: 35aa afbd bf64 a2be 7057 70be e9ec 1ebe
00000040: c96b 703d 317d 643e 11d1 52be 9e0d 9bbe
00000050: e1ed 40bd fd71 b23d 025c e43d 8966 5b3e
00000060: ef75 cb3d 35f2 7ebc 510d 90be da3a ea3d
00000070: bb61 b73d a440 703d 1218 dfbc 3d17 943e
00000080: 99f2 033e 1fd3 52be c5b7 633c a053 a03d
00000090: 6942 933c c1ff 94be 27c6 17be 2e42 803e
000000a0: cf5c dbbd cc61 733c 887d 2d3e ab88 723e
000000b0: 938e 8bbd 7379 a03d 563f 093d 6c66 00be
000000c0: 1c40 67be fb8b 45be b4c5 463e f7be 213e
000000d0: cc1c d9bc 04f2 76bd f45d d8bd 8290 6cbb
000000e0: 9129 a6be 3056 9fbe 9774 18be 7b6a 873d
000000f0: ff64 89be 4e0c 8fbe 7961 803b adc0 903d
00000100: 61de 5a3e b6a2 88be 9d8d 883d 349a 0d3e
00000110: 50da f43d 6590 fcbc ff4a 88bd 8a40 91bd
00000120: 25de 053e 87d2 333e f86e 24be a28a aebe
00000130: 6ce9 b1be 9c0f cbbe d92d 66be fe56 a5be
00000140: fa44 783e a944 20be 42d4 ce3d 25b1 e1bd
00000150: 6b92 533d c1ff a73d 8516 66be 816f ca3d
00000160: 2dd8 b83d cbbc 653d 8d59 853d 5357 7d3d
00000170: ecd3 053e bf40 ae3d 6af1 363e b995 fe3d
00000180: b8f4 70bd 971d 61be fdb9 51be b28a 5fbc
00000190: b77c 71be a022 11be b42c af3b 0042 f03d
000001a0: 4176 ffbc 1e34 cabd 8d3a 313e 4656 e23d
000001b0: 7366 3a3e 78a9 40bd cbab 10bd 8efe a23e
000001c0: 51f4 6d3d 4db4 dc3b 9099 83be b305 283e
000001d0: 6a52 c43d dc72 cdbd dd83 803c 4747 9bbe
000001e0: e08a a3bd 3f8e 4bbe 7eea 01be 5078 21be
000001f0: ad7d b3be 4a17 b03d 454e adbe 48bd 16bd
00000200: a4dd 0e3c 53fa 8d3c 8967 b7be 18bb 1abd
00000210: d566 ff3c d2dc 3f3e a131 4abd 1f6a 873c
00000220: 560a c93d 3236 513e 2341 05be bbd5 eebc
00000230: c573 a83e b7c4 843d 9aba 8a3d b315 dabc
00000240: f939 143e 77b3 6ebe 0317 05be 8ff8 14be
00000250: c25d ecbd 1bc7 9bbd 8f8b b3bd 401e fbbd
00000260: baf3 023e 0716 0abd 6192 20be b95f 8abc
00000270: a32d 48be 3684 133e 5b5a 5f3c d418 b73c
00000280: 7623 0f3d 8989 ec3d 53eb 8a3e 53a7 0e3e
00000290: a5c5 52be e93e 5abe b678 86be c055 0bbe
000002a0: 786d 893e 368f 40be 5404 933e d6c8 acbe
000002b0: fcc7 5bbd 9ef1 8a3d 1912 113e 59dc 49be
000002c0: ecca 233e 986d 0a3e 20e8 07be 2a3b 7cbe
000002d0: 1add 8ebd f1f7 663e e504 993b fb02 8d3d
000002e0: 9184 6bbe 8c36 fc3a 57f9 7b3e 3097 b6ba
000002f0: ebf9 55be b7aa 8cbe 3fd5 243e a2ed bebd
00000300: febe 0cbe 5150 47be 811d bdbd 63b9 093d
00000310: f9f4 513b 68c0 263d 4a67 7abd abcc 41be
00000320: 0ff9 303e c8ca 20be e9fc 4b3e 68aa 1cbd
00000330: e89f 4cbe 7471 973d 4a30 683b aa4e a13a
00000340: 640d 373e 691e 41be 7542 06be cda0 333e
00000350: 1974 573e 9d52 f1bd cff5 3bbd b73b d3bc
00000360: 09d2 8f3e e464 573d c430 883c 67b2 3dbe
00000370: f729 abbe 4f23 55be 7e66 4ebd c20d 8fbe
00000380: b538 51be 3f50 493e c5cd 8abc af08 5ebe
00000390: 3c2d a0be 043e 603c e2a0 053e a4be 883e
000003a0: 262c 3b3c 4033 1fbd 79ca 9dbe c13f 35be
000003b0: cd83 c03d 3100 aa3e d9cc 613e 8e67 54be
000003c0: 1104 c3bc 37f7 06be 0297 7cbb 3cca 393e
000003d0: d9bf 37bd fc55 afbd 369c 3d3b d8eb 67bd
000003e0: 28c1 ce3d 1566 e13d 9c60 213e 7a5d 9bbc
000003f0: 0390 56be f2c0 0dbe 7c3e 8dbe cab2 c6bd
-0.050674316 -0.09663227 0.11367968 0.11565126 -0.020454785 0.10576616 -0.3092094 0.037580762
0.23173022 0.18085921 -0.027217498 -0.0519497 -0.08577386 -0.31717488 -0.23470855 -0.15520062
0.058696542 0.22313382 -0.20587565 -0.30283827 -0.04710186 0.08713148 0.111503616 0.21425833
0.099346034 -0.015560676 -0.2813516 0.11437006 0.089541875 0.058655396 -0.027233157 0.2892398
0.12885512 -0.20588349 0.013898795 0.0782845 0.017976003 -0.29101375 -0.14821683 0.2505049
-0.10711061 0.01485486 0.16942418 0.23684947 -0.06814303 0.078356646 0.033507667 -0.12539071
-0.2258305 -0.1929168 0.19411355 0.15795504 -0.02650299 -0.060289398 -0.10564795 -0.0036096876
-0.32453588 -0.31120443 -0.14888225 0.066121064 -0.26834866 -0.27939075 0.0039178696 0.07068
0.21373893 -0.2668664 0.066676356 0.13828355 0.11955702 -0.030830571 -0.06654929 -0.07092388
0.13073023 0.17560779 -0.16057956 -0.34090143 -0.347484 -0.39660347 -0.22478427 -0.32292932
0.24245062 -0.15651192 0.10099079 -0.11020116 0.051653307 0.08203078 -0.22469528 0.09884549
0.09025607 0.05608825 0.06511221 0.061850857 0.13069123 0.08508443 0.1786553 0.12430901
-0.058827132 -0.21983944 -0.20481105 -0.013643907 -0.23582731 -0.14173365 0.005345905 0.117313385
-0.031184318 -0.09873222 0.17307492 0.110516116 0.18203144 -0.047036618 -0.035320085 0.31834835
0.058094326 0.0067353607 -0.25703096 0.16408424 0.09586032 -0.10031673 0.015687877 -0.30327818
-0.07985473 -0.19878481 -0.12687108 -0.15768552 -0.3505682 0.08598192 -0.33848777 -0.036801606
0.008719835 0.017331278 -0.3582118 -0.037776083 0.031176964 0.1873658 -0.049363736 0.016530095
0.098164245 0.2043083 -0.13013129 -0.029154649 0.32900825 0.06482833 0.06773873 -0.026621675
0.1447524 -0.23310648 -0.1299706 -0.14547943 -0.115413204 -0.07606336 -0.08766853 -0.12261629
0.12788287 -0.033712413 -0.15680839 -0.016891347 -0.19548659 0.14405903 0.013632382 0.022350706
0.034945928 0.1154967 0.27132663 0.13931017 -0.20583208 -0.21313061 -0.2626397 -0.1360693
0.2684133 -0.1880463 0.2871424 -0.33746976 -0.053657517 0.06784366 0.1416706 -0.19712962
0.15995377 0.13518369 -0.13272142 -0.24631944 -0.069757655 0.2255552 0.004669773 0.06885334
-0.22999789 0.001924233 0.24606834 -0.0013930555 -0.20896117 -0.27473995 0.16096972 -0.093226686
-0.13744733 -0.19464232 -0.09234143 0.033624064 0.0032036884 0.040710837 -0.06113366 -0.18925731
0.17282508 -0.15702355 0.19920696 -0.03824845 -0.19982874 0.07394686 0.0035429173 0.0012306769
0.17876202 -0.18859257 -0.13111289 0.1754181 0.21040381 -0.11783335 -0.04588872 -0.02578531
0.28089932 0.05258645 0.016624816 -0.18525086 -0.33430454 -0.2081425 -0.050390713 -0.27940184
-0.20431788 0.19659518 -0.016943822 -0.21683 -0.3128451 0.013686661 0.13049653 0.26707947
0.0114241 -0.038867235 -0.30818537 -0.17700101 0.09400139 0.3320327 0.220508 -0.20742628
-0.02380565 -0.13180242 -0.0038542156 0.18143553 -0.044860695 -0.08561322 0.002893222 -0.056621403
0.100954354 0.11005799 0.1575951 -0.018965472 -0.20953374 -0.13843134 -0.27586734 -0.0970207

layer1.0.bias f4 [16]
00000000: fd08 b3bc 0815 89bc 3365 d3bc 5ae3 1b3e
00000010: b260 153d 1e6d 28be c97a 3ebe 7829 2bbe
00000020: 21d7 2d3e c8ff 413e 9bfc 42be 68a7 2c3e
00000030: e921 1fbe 624b 54bd e35f 223e 97d4 2ebc
-0.021854872 -0.016733661 -0.025805091 0.15223446 0.03646917 -0.16447875 -0.18601526 -0.16715038
0.16976596 0.18945229 -0.19041674 0.16860735 -0.1554028 -0.051829703 0.1585689 -0.010670803

layer1.1.weight f4 [16]
00000000: 41e4 8e3f 2b4e 143f 814b a83f f0ba 8d3f
00000010: 3035 5f3f 763b 4e3f 426c 623f 10c2 883f
00000020: c404 a33f b525 623f 8d3c 583f 80ab 4e3f
00000030: d02d 893f 4363 733f 5711 473f d40c 9d3f
1.1163408 0.57931775 1.3148042 1.1072674 0.8719053 0.8055948 0.8844644 1.0684223
1.2735829 0.88338786 0.84467393 0.8073044 1.0717106 0.95073336 0.77760834 1.226954

layer1.1.bias f4 [16]
00000000: 1258 74be 4f2a dbbe d8ea 57be f5ae 2fbe
00000010: 3ae4 b4be ca1a a1be 9744 07bf 1155 8bbe
00000020: ca89 c4be 2f28 25bf c89f fcbe 6a4b e9be
00000030: 8ef0 9dbe 7b2b 21be 0065 04bf e623 5ebe
-0.23861721 -0.42805716 -0.2108568 -0.17156585 -0.35330373 -0.3146575 -0.52839035 -0.27213338
-0.38386375 -0.6451444 -0.49340653 -0.4556535 -0.3084759 -0.15739243 -0.51716614 -0.21693382

layer1.1.running_mean f4 [16]
00000000: 654c 2ec1 8021 75c0 ba91 d1c1 405c 25c2
00000010: 6ea5 f3c1 4110 73c1 fd69 4ac1 07dd 0bc2
00000020: c8e3 d2c1 108d af3f 727a 1540 7e9d 0d40
00000030: 9e52 0dc2 547d e6c1 945d 19bf 68e5 e7c1
-10.893651 -3.8301697 -26.196156 -41.340088 -30.455776 -15.191468 -12.650876 -34.965847
-26.361221 1.3714924 2.3355985 2.2127376 -35.33068 -28.811195 -0.59908414 -28.987015

layer1.1.running_var f4 [16]
00000000: 277d 0445 3b0a 5444 8c92 d945 1a9d 0a46
00000010: 9821 e445 7a74 f244 acbe b944 90ea 0646
00000020: 6065 9d45 cc8f 1245 257c 0645 fc07 bf44
00000030: 9dc5 de45 b4d8 2046 9e3b dc45 2e98 a845
2119.822 848.15985 6962.3184 8871.275 7300.199 1939.6399 1485.9585 8634.641
5036.672 2344.9873 2151.759 1528.2495 7128.7017 10294.176 7047.452 5395.0225

layer2.0.weight f4 [32, 16, 5, 5]
00000000: 5400 d5bc 72c4 fbbb fe50 6bbd bab2 0b3e
00000010: 643e 2c3d 2250 873e 3e12 923d 8a03 5b3e
00000020: 1cb3 a9bc 64a6 f3bd f4de 94bd 5fff e3bc
00000030: 263b 1e3d 96c6 55bc 26c6 82be fd9e a5bd
00000040: 0ccc dc3d 73a1 b4bc 1c78 b5bd 1c97 60bd
00000050: 7552 ab3c dfa5 c6bd df26 9fbe f846 d73d
00000060: 2901 293d 66d6 88bd e9a5 513d c4bd 033e
00000070: f715 273e 8327 8bbc 8a28 d6bc da67 53bc
00000080: 9c4d 3a3e eb38 43bb c04f 8fbe a9ef 5dbd
00000090: b35a 19be 3d4c 6fbb ea74 88bd d644 653d
000000a0: 9284 48bd 410b 04bd e1cc df3d c0f5 4c3e
000000b0: ae6d 57bc aa07 153e 4083 723d f95f b33c
000000c0: ed62 933d 5147 f13d 7b1f 2abe 03bc cf3c
000000d0: c441 673e 160e c63d 8cd5 a8bd 1fc3 133d
000000e0: c6aa 443b 03cc 9c3d 8690 eabc e0a6 b1be
000000f0: c8df bcbd a9f8 0fbe b7fc a9bd 4aa6 033e
00000100: e864 db3d c42e a4bd 2f21 bbbd 25f9 9fbc
00000110: 639b 003e 8e30 893e 3055 c2bd 625e f5bd
00000120: ad40 263e 5062 343d 0d0f 163d ff66 45be
00000130: 7f0a e1bd a132 1c3d c2c7 fa3d abdf 2bbe
00000140: 00e0 703e d911 843d 2a9c 563c 5fc8 5bbc
00000150: 4c4c 3bbc 481d 8d3d ddda 74bc bf71 36bc
00000160: 462c 65be a4e4 80bd 0dd2 6fbd 49d3 e43d
00000170: 351f 9e3d 5844 0c3d 8aca 273e 454b 463d
00000180: 1d12 6fbd 86b0 59bd 74a2 0e3e a176 c4bd
00000190: 2af6 a2bd 90ab 01be 5675 b0b8 d563 98bd
000001a0: fc06 3abd ff2d debd cae4 1dbe 55d6 443d
000001b0: 2453 8bbc 7d0b 2fbe 2032 cabc 5c9e 21be
000001c0: ddba e7bd 400e c2bc fcd5 5c3e ef7b 083c
000001d0: 05a7 3ebe 28a6 52be 8bbc 403c 2dbc 883e
000001e0: a5d6 b5bd 14e4 6abe 6164 503c bad0 243e
000001f0: f31d 1e3e 8b74 40bd 4fa6 efbd ecf3 1b3e
00000200: e342 5a3e 11ea 183e 7baf f2bd d98f 3a3c
00000210: 6cff 313d f508 0b3e ad49 863d 7037 af3d
00000220: afab 6abd de52 77be 623f c43d d445 9ebc
00000230: 85d0 ee3c f437 2abe 2721 66bd c707 31be
00000240: 1176 bb3c 386c 6e3d ed48 bdbc 99f7 04bd
00000250: 204a 9dbc 263c 123e 606a 41be 6bee 303e
00000260: 0037 14be f5d6 a33d 90ca 073d da39 f5bd
00000270: c407 423e 8d42 103d 7a73 9dbb 0c9e 9a3d
00000280: f80e af3d fa26 1d3d be03 8e3d 2ee7 e5bd
00000290: e33e 46bb 697a 21be 0c67 26bd a616 253e
000002a0: 5e5d 46be 0a90 cbbc 9df0 033e 4602 76bd
000002b0: 423f adbc 50ac ccbc 2a16 8f3b c480 39bd
000002c0: 0de8 22be ffbc 743c b0a7 af3d 6509 0bbe
000002d0: 6ed2 83bd b0bf 32bd 8e60 53be 5566 1abd
000002e0: 4ad5 3b3d 77a4 903d aa07 0dbd 946e 2dbe
000002f0: 8f34 d53c 72de 0a3d 21ac 013e 8385 cf3d
00000300: 0e26 38bd ee4d a63c b9e9 263e 971e 963d
00000310: acf3 02bd a1c0 83bd 8276 7a3e 08d9 423e
00000320: ac15 333d 4938 7d3e 992b 8c3d 747b 95be
00000330: f1f2 61bd ab0f 52be b5fb 123d 4a17 9d3d
00000340: 33a6 ee3c 83d7 193d 010c 8fbd 0e23 fcbd
00000350: dd00 07be fdb4 f8bd 9513 edbd 739b 9d3d
00000360: 8d30 5bbd 65cc 32be e9dc 29be a3f3 ab3c
00000370: 3b10 103c b53e cebd 27a1 dbbd 26e7 163e
00000380: c9bd 123c 9835 123e ce24 2f3e cd8a 39bd
00000390: 3d70 fabd 84b4 223e 359d 95bd 782a 91bc
000003a0: 0dba fb3d d029 cbbd 05f7 f9bc ebd1 043e
000003b0: aa55 0a3d b8d8 1f3e b761 163d f753 4dbc
000003c0: 7590 9d3d 6495 ae3c f3c4 a9bd c9f8 b93d
000003d0: e77c bbbb 9f3f cf3d 70d2 3ebd 8104 0cbe
000003e0: 677c 10be 7706 18be 9546 623d 7b18 003e
000003f0: d062 f73d 2f9c a73d e30c 4c3d c83b 61bd
-0.026001133 -0.00768333 -0.057450287 0.13642398 0.042051688 0.26428324 0.07132386 0.21388069
-0.020715289 -0.11896971 -0.072690874 -0.027831731 0.038630627 -0.013047835 -0.255418 -0.08086965
0.10781106 -0.022049641 -0.088608 -0.05483161 0.020913342 -0.09699606 -0.31084344 0.10511583
0.041260872 -0.06681518 0.051183615 0.12865359 0.16316973 -0.016986614 -0.026142377 -0.012903178
0.18193668 -0.0029788564 -0.27990532 -0.054183636 -0.14976005 -0.0036513947 -0.066629246 0.05597385
-0.048954554 -0.032237295 0.109277494 0.20015621 -0.013148708 0.14553705 0.0592072 0.02189635
0.07196603 0.11781181 -0.16613571 0.025358206 0.22583681 0.096706554 -0.08243856 0.036074754
0.0030009015 0.076561 -0.028633367 -0.34697628 -0.092223704 -0.140597 -0.08300155 0.12856403
0.10712606 -0.08016732 -0.09137189 -0.019527981 0.12559275 0.26794857 -0.094889045 -0.11980893
0.1623561 0.04403907 0.036635447 -0.19277571 -0.1098833 0.03813422 0.12245132 -0.16784541
0.23522949 0.06448717 0.013098756 -0.013414471 -0.011431765 0.068903506 -0.014944759 -0.011135518
-0.2238017 -0.0629361 -0.05854993 0.11173112 0.07720796 0.034244865 0.16385856 0.048411626
-0.058366884 -0.05314686 0.13929158 -0.09592939 -0.07957108 -0.12663102 -8.4141895e-05 -0.074409164
-0.045416817 -0.10848617 -0.15419307 0.048055965 -0.017007418 -0.17094226 -0.024682105 -0.15783066
-0.11314938 -0.023688436 0.21566004 0.008330329 -0.186184 -0.20571196 0.011763702 0.26706067
-0.08878831 -0.22938567 0.012719245 0.16095248 0.15441112 -0.046986144 -0.11701643 0.15229768
0.21314578 0.14933039 -0.118498765 0.011386835 0.04345648 0.13577636 0.06557021 0.08555496
-0.057292636 -0.24152705 0.09582402 -0.019320406 0.029152164 -0.16622907 -0.05618396 -0.17288123
0.022883447 0.058208674 -0.023106063 -0.03246269 -0.019200385 0.14280757 -0.18888235 0.17278449
-0.14474106 0.07999984 0.033152163 -0.11973925 0.18948275 0.035219718 -0.0048050256 0.07549676
0.08547777 0.03836725 0.069343075 -0.11225735 -0.0030249886 -0.15769352 -0.040625617 0.16121921
-0.19371554 -0.024848957 0.12884755 -0.060060762 -0.021148328 -0.024984509 0.004366656 -0.045288816
-0.15908833 0.014937638 0.08576906 -0.13577802 -0.06436621 -0.04363984 -0.20642301 -0.037695248
0.045857705 0.07062619 -0.034431137 -0.16936713 0.026026038 0.033903547 0.12663318 0.10132887
-0.044958167 0.020300832 0.16300096 0.07330053 -0.031970665 -0.064332254 0.2445927 0.19028103
0.04372184 0.24728502 0.06844253 -0.2919575 -0.055163328 -0.2051379 0.035884578 0.07670458
0.029131984 0.037559044 -0.069847114 -0.12311374 -0.13183923 -0.12143896 -0.115760006 0.07695665
-0.0535131 -0.17460783 -0.16588177 0.020990198 0.008792932 -0.10070554 -0.10724097 0.14736614
0.008956381 0.14278257 0.17103884 -0.045298386 -0.12228439 0.15889174 -0.073053755 -0.017720446
0.12291346 -0.099200845 -0.030513296 0.12970702 0.033773102 0.15610015 0.036714282 -0.012532226
0.076935686 0.02131147 -0.08289518 0.09080655 -0.0057216766 0.10119557 -0.046587408 -0.13673593
-0.14109956 -0.14846216 0.055243094 0.12509339 0.12079394 0.081840865 0.049816977 -0.054988652

layer2.0.bias f4 [32]
00000000: 7a27 f83c faa4 a3bb 7ce6 6bbc 5f73 06bc
00000010: a47a 43bd 5451 7ebc b5c7 ab3d 5b0d c73b
00000020: 96e0 85bc daf7 98bc 9d95 4f3c cc23 ca3c
00000030: a1aa 09bc 10ae 043d ef44 52bc e122 863d
00000040: d161 ff3c 0cd2 a7bc 734c 4ebd 98ac 4fbd
00000050: c43e e73b 4f00 c1bc 592a 4f3d a472 88bc
00000060: 1223 f6bc 376c 89bd 179a 853c 92b8 9b3c
00000070: 6c58 2dbd b3a2 6d3c 39df bfbc 8d57 21bd
0.030292261 -0.004994032 -0.0143982135 -0.008206218 -0.04772438 -0.01552232 0.083877005 0.00607459
-0.016342442 -0.018672872 0.012669948 0.024675272 -0.0084024975 0.03239256 -0.012833818 0.065496214
0.031174572 -0.0204859 -0.050365876 -0.050701708 0.007057043 -0.023559717 0.050577495 -0.016656227
-0.03004602 -0.067100935 0.016308827 0.019008908 -0.042320654 0.014504123 -0.02342187 -0.039390136

layer2.1.weight f4 [32]
00000000: 4584 bd3f cb12 b83f 5a4a b33f 47c9 ba3f
00000010: 0bbc ad3f a716 a03f ca97 bf3f 9ab3 933f
00000020: 4ee5 af3f aa03 b03f 128c 963f 1c4a be3f
00000030: d5fc ac3f b7cc b73f 8512 be3f d2e1 9e3f
00000040: b8cb d33f 570a a13f 4fa7 b03f cf07 a83f
00000050: 743f 9a3f 7ee1 a13f d691 bb3f b09f af3f
00000060: 8153 c43f 05b7 b53f e238 ba3f c8e0 bd3f
00000070: b7a3 c93f 5b40 ac3f e890 a23f 0f9a ae3f
1.480599 1.4380735 1.4007065 1.4592675 1.3573011 1.2506913 1.4968197 1.1539185
1.3741853 1.3751118 1.1761496 1.4866366 1.3514658 1.4359349 1.4849402 1.2412665
1.6546545 1.258128 1.3801059 1.3127383 1.2050614 1.264694 1.4653881 1.3720608
1.5337983 1.4196478 1.4548609 1.4834223 1.5753087 1.345714 1.2700472 1.3640765

layer2.1.bias f4 [32]
00000000: cbba 02bf 06d5 abbe 85f8 85be ae83 92be
00000010: d174 b9be 5f0d e9be 63ef 6cbe 143a b9be
00000020: a00b fbbe e401 b1be 837e 84be 7691 0ebf
00000030: 2174 b3be a508 0cbf 64d7 adbe 1674 f8be
00000040: ab9a a4be 86df bbbe ec13 20bf d1e5 c4be
00000050: 4446 03bf 46cb 1ebe f057 f7be 8ca3 a3be
00000060: 41fc 0dbf 5f8f 33bf adf9 f6be fcd9 03bf
00000070: 2b2c fbbe 16f8 bdbe f60d 89be e432 c5be
-0.51066273 -0.3356096 -0.26166168 -0.2861609 -0.36221936 -0.45518014 -0.23138194 -0.36177123
-0.49032307 -0.34571755 -0.2587777 -0.55690706 -0.35049537 -0.5470069 -0.33953393 -0.48526067
-0.32149252 -0.36693972 -0.625304 -0.38456586 -0.5127909 -0.1550723 -0.48309278 -0.31960714
-0.55463034 -0.7014064 -0.48237363 -0.5150449 -0.49057135 -0.37103337 -0.26768464 -0.3851539

layer2.1.running_mean f4 [32]
00000000: 297e 1abd c802 673f 2072 cf3c 3177 af3e
00000010: e3bf 1cbf a05f cabe f82c b3be dcb5 5e3e
00000020: a490 30be 0347 e03b b5f2 01bf 2bdc 1c3e
00000030: ecc0 47bf 9db8 dbbe 5196 f0be 93e1 9f3c
00000040: 4958 a53e 5bb8 bfbe c06e 503d 5ae2 e7be
00000050: 7ebe 8dbe bec3 443f 63ce 273f 7e4b 95bf
00000060: 7ecb e4be 35a2 3ebf 7563 b3be d30b 76bf
00000070: 0169 8abe 6ab4 bcbe b29b b1be 3d65 2fbf
-0.037717972 0.9023862 0.025322974 0.34270623 -0.61230296 -0.3952608 -0.34995246 0.21749061
-0.17242676 0.0068444028 -0.50760967 0.15318362 -0.7802875 -0.42914286 -0.46989682 0.019516742
0.3229392 -0.3744534 0.05088687 -0.4528988 -0.27684397 0.7686118 0.65549296 -1.1663663
-0.44686502 -0.7446626 -0.35036817 -0.9611179 -0.27033237 -0.36856395 -0.346891 -0.6851385

layer2.1.running_var f4 [32]
00000000: 1b35 0f40 4ef1 0240 fe2a 4240 4034 2340
00000010: f7e0 2640 6032 1340 1e0b 2540 c59c 2640
00000020: 094f 0c40 f854 1c40 006f 9640 c667 1040
00000030: d23b 2240 1f1b 3b40 8ac0 1e40 4f4c 4840
00000040: 28a0 3c40 5b65 4a40 c08d 0f40 cdd7 0540
00000050: 05cb 1040 b710 2940 2826 3740 6964 2140
00000060: 3905 2f40 417b 0d40 36f3 3640 f78b 1540
00000070: 190f 1040 63df 2840 64ed 2d40 5673 2940
2.2376163 2.045978 3.033874 2.550064 2.6074808 2.2999496 2.5788035 2.6033185
2.192324 2.442686 4.70105 2.2563338 2.5349011 2.9235303 2.4805017 3.1296575
2.9472752 3.1624362 2.2430267 2.0912964 2.2623913 2.6416452 2.8617039 2.5217535
2.7346938 2.2106478 2.8585944 2.3366678 2.2509215 2.6386344 2.7176142 2.6476645

fc.weight f4 [10, 1568]
00000000: 4acc 55be 0556 43be d872 373d d8b4 73be
00000010: abe1 743c f33f 08bd 9320 123e 3340 9f3d
00000020: 1cba 89bd 8524 143e aad7 92bb 56cc 82be
00000030: 2063 09be 2602 15bc 3dc1 a53d f133 cf3d
00000040: 6b1c 1c3e dd29 a0be c024 303d b1c1 3e3e
00000050: 498c 873d 179d bb3d e3aa 8cbd a487 aabd
00000060: d3c8 b63d 4d20 0d3e 29f2 ca3d eea9 c1bd
00000070: ee28 933c cb7f 34bd 2141 62bb e7fd 33be
00000080: 0b78 1b3e 3303 483d 5dea b4bd 523c 753d
00000090: d295 dfbd 25af 6cbd 8d58 993c 58f7 903d
000000a0: de13 10be 26c0 8bbe 78b2 a03d a360 963b
000000b0: 56af 63bd b143 83bc cd44 743d 7029 38bd
000000c0: f418 85bb 4638 133e f498 08bd 190a 54bb
000000d0: da3a 13be 53e7 683e 689d bf3c 26e9 bb3d
000000e0: 4e05 343d 7815 473a c9fb 49be 648a a4bc
000000f0: 423e 27bc b0d4 ba3d f5dd 17bd d1c0 753e
00000100: d0b4 f33b 56d1 a8bc 2a39 00be 4642 443d
00000110: 3bca 4fbe 4437 ccbc 7c65 74bc 53de 6d3d
00000120: 068a e83d f34d 2e3d 4068 51be e965 92bc
00000130: b7cf c23c e2b3 873c 3adf 103e cd8a 1d3e
00000140: c01a 1b3e a9b1 c93d a7cb 0b3e 94b9 433e
00000150: e35b ee3d 79c0 babe 23ca d3bc 532b 6c3d
00000160: b21f 583e 270d 853d 2751 2bbd 18e7 1cbe
00000170: f2d0 13be e760 bc3c daaa 2abd 6c69 2bbd
00000180: e867 38bd 1b58 4b3d c11a 133d 945d eebd
00000190: 880d 4fbe 1c8b e7bd e962 f2bc 74c8 043d
000001a0: 9e28 cf3d 31b2 b1bc b536 8b3d a243 af3c
000001b0: 2104 7c3d 29d1 5cbe 894c eabd 4675 e3bd
000001c0: b95c 9dbd 18a9 363e 7a99 613e 2a33 753d
000001d0: dcd9 2ebe d9d9 cf3d 9ad1 1c3e 688a ca3c
000001e0: 5dc1 6e3d 6379 c93d 5eb9 7ebe e231 043e
000001f0: 27a2 3a3e 6ebe ee3d 36e7 213d 8972 133d
00000200: 213d 4ebd fe5b 64bd 4123 983d 5610 9b3d
00000210: 242e 99bc b355 bb3d 0690 2e3d 47d5 acbc
00000220: c6c1 22be f940 b9bd 5aef 53be 5d5c 28bc
00000230: 1955 8e3c 874e a0bd 67e8 ffbd 1789 32be
00000240: c72b 74bc 1b7b b7bd 4c64 a13d 553c 66bd
00000250: b04a 3dbd 39c7 40bd da25 f4bc 70e5 f93c
00000260: 9e6b 4a3c aee9 4b3d e5d9 a2bc 16fb 183e
00000270: 11ef 183e dc3e 603d cdbd 123d 9562 cfbd
00000280: f9c1 093d 072f 86bd 8351 8dbe 41a1 b8bd
00000290: 9d6e 9b3d f79e 8dbd 54f0 8e3d 4f59 28be
000002a0: 99e9 82be 72fa b2be b938 4fbe 66c1 9d3c
000002b0: c1db 07bd 1637 2abe fd4b 18be d361 efbd
000002c0: 891b 5abe c064 76be 9cad 133e d318 0d3e
000002d0: 8ed7 77be 4bd6 70be ab9b 73bd cd3e 3cbb
000002e0: 74a7 3fbd 8721 403e dfe4 2a3e e986 0f3d
000002f0: 9b17 733d a9cd 003c cd1c 563d fed2 a63d
00000300: 200c c83d d62e 163d 6fe9 bebc 62d1 b73c
00000310: 7670 97bd 3084 b9bd 9b48 2abe 81f8 05be
00000320: bec9 0dbe 2820 44bc fbe4 06bc 86a5 d2bc
00000330: ca73 473d e74d d5bc 4fbd c1bc eed3 ab3b
00000340: a0db d53d 6cbf ab3d 9af1 843c 1ece 333c
00000350: d069 563e 51b0 8e3d f7da 1d3d 178c 47bd
00000360: 1b43 663d 2d3c 073e 0b73 30bd c775 f7bd
00000370: a8c0 f93d 0a15 c8bd c6c2 e23c 5d4d 8e3b
00000380: 4cb1 0fbe 0a5c a9be 1ba9 11bd 7bb1 6e3d
00000390: b225 50bd 0b6e 6bbe aba9 dd3d 268e 11be
000003a0: 81b7 63be 1106 fd3d 9c0a f0bc 801b 2bbd
000003b0: 2cf7 e8bd 3c0d d0b8 79b3 71bd d6b3 d9bd
000003c0: 1885 033e 1ac2 873d 9717 133e ce8e 3ebd
000003d0: b376 013d 1fa7 083e e8b7 04bd 549a a4bd
000003e0: 71be 443d 9112 023d 1053 993d e64a 8fbc
000003f0: 7ea1 903d c04b a2bd d66c 393e 5ac7 a93d
-0.20878711 -0.19075783 0.044787258 -0.23799455 0.014946382 -0.03326411 0.14270239 0.07775917
-0.06724951 0.14467056 -0.0044812756 -0.2554652 -0.1341672 -0.0090947505 0.08093498 0.10117329
0.15245216 -0.3128194 0.043003798 0.18628575 0.06618554 0.09160822 -0.068685316 -0.08326653
0.08925023 0.13781853 0.0990947 -0.0945624 0.017963853 -0.044067185 -0.0034523683 -0.17577325
0.15182512 0.048831176 -0.08833764 0.05987198 -0.10917248 -0.05778422 0.018718982 0.07078427
-0.14070079 -0.27295035 0.0784654 0.0045891567 -0.055587135 -0.016023489 0.059635926 -0.044961393
-0.0040618125 0.14376935 -0.033348992 -0.0032354651 -0.14377919 0.22744493 0.023390487 0.09175329
0.04395037 0.00075944467 -0.19724955 -0.020085521 -0.0102077145 0.09122598 -0.03707691 0.23999335
0.007437326 -0.020607632 -0.12521806 0.047914766 -0.20291989 -0.024928696 -0.014916774 0.058073353
0.11354451 0.042554807 -0.20449924 -0.01787086 0.023780687 0.016565267 0.14147654 0.1538498
0.15146923 0.09848339 0.13651906 0.19113761 0.1163862 -0.3647497 -0.025853222 0.057658505
0.21105841 0.06496649 -0.04182544 -0.1532253 -0.14435175 0.022995425 -0.041666843 -0.041848585
-0.045020968 0.04964457 0.035914186 -0.11638942 -0.20220006 -0.1130583 -0.02958818 0.03241773
0.10115169 -0.021691414 0.06797544 0.021394555 0.061527375 -0.21564163 -0.11440379 -0.111063525
-0.07683701 0.17837942 0.22031203 0.059863247 -0.17075294 0.10148973 0.15314332 0.0247242
0.058289874 0.09837606 -0.248754 0.12909654 0.18225919 0.11657415 0.03952714 0.0359979
-0.050351266 -0.055751793 0.07428599 0.07571475 -0.01869876 0.09147205 0.04261782 -0.021097792
-0.15894231 -0.09045596 -0.20696774 -0.010275927 0.017374562 -0.07827478 -0.12495499 -0.17435108
-0.014903015 -0.089590274 0.07880458 -0.05620988 -0.046213806 -0.047064994 -0.029803205 0.030504912
0.0123547595 0.0497834 -0.01987929 0.14939532 0.14934947 0.054747447 0.03582554 -0.10126225
0.033632252 -0.065519385 -0.2760125 -0.09015132 0.07589457 -0.06915086 0.06979433 -0.16440319
-0.25568846 -0.349567 -0.20236482 0.019257259 -0.033168558 -0.16622576 -0.14872737 -0.1168858
-0.21299566 -0.2406187 0.14421695 0.13779001 -0.24203321 -0.23519246 -0.05947463 -0.0028723956
-0.046790555 0.1876279 0.1668887 0.03504077 0.059348684 0.007861533 0.05227356 0.08145712
0.09767938 0.03666576 -0.02330467 0.022438709 -0.07394497 -0.09058416 -0.1662926 -0.13083078
-0.1384649 -0.011970557 -0.008233304 -0.025713693 0.04869441 -0.026038123 -0.02364984 0.00524377
0.10442281 0.0838612 0.016228486 0.010974435 0.20938802 0.069672234 0.0385389 -0.048717584
0.05621634 0.13206549 -0.043078464 -0.12083011 0.121949494 -0.09769638 0.027680766 0.0043427185
-0.14032477 -0.33078033 -0.035561662 0.058274727 -0.0508172 -0.22991197 0.10823377 -0.14214382
-0.2223797 0.12354673 -0.029301934 -0.041774273 -0.11375269 -9.920678e-05 -0.05900905 -0.10630004
0.1284374 0.06628819 0.14364468 -0.046522908 0.03160734 0.13345002 -0.03240195 -0.08037248
0.04803318 0.031755988 0.07486546 -0.017491769 0.07062052 -0.079246044 0.18107924 0.082899764

fc.bias f4 [10]
00000000: 8970 103d 7c3a 073e dd8a b33c 0c56 23bc
00000010: 2fd8 ccbc 770c 0a3c 02b2 1dbd 2414 823c
00000020: 66d1 00bd d99d d13c
0.035263572 0.13205904 0.021916801 -0.009969246 -0.025005428 0.008425823 -0.03849984 0.015878744
-0.031449698 0.025587963
